How to train a CC model from scratch/weights/Mall_MCNN.pth (torch, 542807 bytes, 25 tensors)

branch1.0.weight f4 [16, 3, 9, 9]
-0.009953284 -0.027560161 0.0039864727 0.010139737 -0.006464663 -0.011056029 -0.006443638 -0.01899242
-0.020433856 -0.010128238 0.0064211246 -0.027360989 -0.016303899 -0.0034412937 -0.017876307 -0.01603858
-0.01531993 -0.01140498 -0.0021293568 -0.0042486633 -0.0033655495 -0.0057472247 0.0065287687 -0.0066127954
0.0011123635 -0.008369756 0.0026917013 0.011621753 -0.0054200273 -0.007997744 0.0043228283 -0.018249754
0.002156601 -0.019407332 -0.0012362308 -0.0033120203 -0.0028610912 -0.02187723 0.00033295908 -0.0008050118
-0.010146701 -0.012731106 -0.002452392 -0.005329406 -0.0005111652 0.00051009335 0.00251932 0.011465875
0.01217668 -0.013248307 0.0031066698 -0.0037029458 -0.010813346 0.01339061 -0.018695265 -0.012971081
-0.020820946 -0.019902265 -0.005106633 -0.01738152 0.0058626267 0.0037725547 0.0022038275 0.0042763213
-0.010010377 -0.021618867 -0.009897846 -0.008097479 -0.018733574 0.020690335 -0.0046694637 0.007566214
-0.0035472487 -0.00017227366 -0.022936817 0.0049319086 -0.0016165382 -0.011431501 -0.0036518078 -0.024574887
-0.0057827975 0.00164687 0.011314196 0.027139932 -0.013489845 0.009518818 0.003588409 -0.0014305217
0.008261685 0.0075826873 0.01954823 -0.017874522 0.01088878 0.022745216 0.020009553 -0.004684629
-0.01002995 -0.012121701 -0.0072308425 0.0037346997 -0.008557099 -0.003444327 -0.024270905 -0.0072504496
0.005930535 -0.012529898 0.0058138366 -0.00254058 -0.013528385 0.003610925 -0.0043798564 -0.0135004595
0.007857213 -0.018419744 -0.01091496 -0.006147795 -0.0011343305 -0.0030812898 0.003882127 -0.0028102733
0.002619631 0.00054585806 -2.799601e-06 0.0046548704 0.006429562 0.0038896522 0.0030242023 0.0018911911
-0.021962123 -0.0046430025 0.0004397461 -0.02795568 -0.0058877794 0.007930909 -0.011921625 -0.0005276408
-0.013918215 -0.0030990501 0.006802436 0.010450811 0.0007390422 0.0032605224 -0.020772886 0.01115608
-0.007346067 0.0069187353 0.0006257648 -0.004824849 0.0077092624 -0.0072621056 -0.00093234814 -0.020433007
0.0038091976 -0.011312446 -0.00762856 0.003547194 -0.0114759905 -0.016506555 0.0029299299 -0.0031486987
-0.014132677 -0.007272022 -0.0008160266 0.01696015 0.001569641 -0.015216557 0.011495818 0.017604165
0.012257295 -0.006907866 0.008273428 0.008720839 -0.004018572 0.015587377 0.002279682 0.0076901587
0.006812487 0.0027437524 0.004282155 -0.022925338 -0.018295351 -0.0075908545 -0.015177112 -0.004805327
-0.0118891755 0.0008013874 -0.0135444105 -0.0027627558 -0.02341284 -0.0030766188 -0.010842698 0.0012260595
-0.009070318 -0.022118064 -0.009645152 -0.01094056 -0.0065113916 0.0004960627 -0.009292533 -0.00054051646
-0.0025645667 -0.024023954 -0.010932485 -0.008297816 -0.002143343 -0.017082913 -0.021905499 -0.002915831
-0.0004970346 -0.0012239789 0.0057237055 -0.0094691655 -0.005202457 0.0017217172 0.010470661 -0.010140247
-0.0068004015 0.0033404608 -0.009512205 -0.0011964053 -0.0065810797 -0.020053554 0.0024300502 0.0020944348
-0.005531215 0.0049869064 -0.0007297 0.0034484747 0.0029247894 -0.016647944 0.015961481 -0.00012067073
-0.011186482 -0.0068216017 -0.024980208 -0.01679892 -0.026289226 -0.024903903 -0.01417259 -0.022803884
0.0051871343 -0.02074662 -0.0011399294 -0.007329101 0.015335598 -0.0016667757 0.009844942 -0.008660956
-0.0054024025 0.0028459597 -0.021173602 0.007366237 0.00835539 -0.0038814053 0.0059939395 0.0015092199
00000000: 1913 23bc d9c5 e1bc f5a0 823b 2421 263c
00000010: 86d5 d3bb 5924 35bc 2725 d3bb fe95 9bbc
00000020: e764 a7bc e9f0 25bc 4c68 d23b 2724 e0bc
00000030: c18f 85bc 5487 61bb 5571 92bc 5763 83bc
00000040: 7200 7bbc f4db 3abc ae8c 0bbb 5f38 8bbb
00000050: 8d90 5cbb 3753 bcbb 48ef d53b 26b0 d8bb
00000060: bacc 913a 4d21 09bc 4167 303b 2a69 3e3c
00000070: 7c9a b1bb f808 03bc 83a6 8d3b 8280 95bc
00000080: c355 0d3b 20fc 9ebc 0609 a2ba 7b0e 59bb
00000090: 2581 3bbb e037 b3bc 0391 ae39 6d07 53ba
000000a0: 593e 26bc 2196 50bc 4fb8 20bb 4ca2 aebb
000000b0: b7ff 05ba c9b7 053a 2d1b 253b 5edb 3b3c
000000c0: b380 473c 6d0f 59bc 4599 4b3b 1fad 72bb
000000d0: 762a 31bc 4a64 5b3c d026 99bc a884 54bc
000000e0: b090 aabc 130a a3bc 8b55 a7bb b063 8ebc
000000f0: 471b c03b f73c 773b 176e 103b 6220 8c3b
00000100: 9002 24bc 0d1a b1bc 932a 22bc 4aab 04bc
00000110: 2777 99bc c77e a93c 4d02 99bb 01ee f73b
00000120: f578 68bb 5ca4 34b9 fee5 bbbc d99b a13b
00000130: 05e2 d3ba 314b 3bbc 2b53 6fbb 4651 c9bc
00000140: 9f7d bdbb cadb d73a 2d5f 393c 9054 de3c
00000150: 8304 5dbc d1f4 1b3c 832b 6b3b 5880 bbba
00000160: 055c 073c 3178 f83b 9c23 a03c 976d 92bc
00000170: da66 323c 2d54 ba3c 13eb a33c 8481 99bb
00000180: a954 24bc 199a 46bc b4f0 ecbb ddc1 743b
00000190: 1333 0cbc 38ba 61bb c7d3 c6bc 2e95 edbb
000001a0: ef54 c23b 344a 4dbc ff81 be3b dc7f 26bb
000001b0: 29a6 5dbc 45a5 6c3b e684 8fbb 0831 5dbc
000001c0: 8abb 003c 01e5 96bc a9d4 32bc 7173 c9bb
000001d0: d1ad 94ba 77ef 49bb 496b 7e3b 902c 38bb
000001e0: 1dae 2b3b ea17 0f3a c7e0 3bb6 e287 983b
000001f0: 13af d23b 89e9 7e3b b231 463b d8e1 f73a
00000200: e9e9 b3bc 5424 98bb b98d e639 4f03 e5bc
00000210: 46ee c0bb a5f0 013c eb52 43bc 6051 0aba
00000220: 3a09 64bc 6f19 4bbb f8e6 de3b e139 2b3c
00000230: 48bc 413a 7dae 553b e62b aabc fec7 363c
00000240: 47b7 f0bb 8fb6 e23b 5d0a 243a c419 9ebb
00000250: fb9d fc3b f5f6 edbb d368 74ba 1f63 a7bc
00000260: bba3 793b d657 39bc 00f9 f9bb 0a78 683b
00000270: cb05 3cbc c138 87bc 1104 403b 665a 4ebb
00000280: be8c 67bc 244a eebb 9eea 55ba 03f0 8a3c
00000290: 6abc cd3a de4e 79bc f558 3c3c 9c36 903c
000002a0: d2d2 483c 615b e2bb 468d 073c dae1 0e3c
000002b0: 3aae 83bb 3362 7f3c b866 153b bafd fb3b
000002c0: 483b df3b 87d0 333b 5251 8c3b ebcd bbbc
000002d0: 22e0 95bc b4bc f8bb 6ca9 78bc 0176 9dbb
000002e0: d1ca 42bc 3314 523a 60e9 5dbc 5a0f 35bb
000002f0: 49cc bfbc 19a1 49bb 92a5 31bc bbb3 a03a
00000300: ac9b 14bc f130 b5bc b306 1ebc 0940 33bc
00000310: 835d d5bb 340a 023a b53f 18bc 72b1 0dba
00000320: 4a12 28bb e2cd c4bc 2a1e 33bc 90f3 07bc
00000330: 5477 0cbb 77f1 8bbc 2973 b3bc 8717 3fbb
00000340: 6d4b 02ba eb6d a0ba ec8d bb3b 8f24 1bbc
00000350: 5f79 aabb 3eab e13a 238d 2b3c 4723 26bc
00000360: e7d5 debb a2eb 5a3b 14d9 1bbc b3d0 9cba
00000370: 19a6 d7bb 5a47 a4bc 7a41 1f3b c942 093b
00000380: 323f b5bb 3469 a33b 5749 3fba ceff 613b
00000390: d3ad 3f3b 4561 88bc a7c1 823c 9b10 fdb8
000003a0: 8247 37bc be87 dfbb 4ba3 ccbc e49d 89bc
000003b0: 815c d7bc 4503 ccbc 2734 68bc 36cf babc
000003c0: d6f8 a93b d1f4 a9bc af69 95ba f528 f0bb
000003d0: 2942 7b3c b677 daba ae4c 213c afe6 0dbc
000003e0: a306 b1bb 4883 3a3b 4374 adbc 7a60 f13b
000003f0: 0ce5 083c 2d5f 7ebb cf68 c43b 04d1 c53a

branch1.0.bias f4 [16]
-0.00597029 -0.0058666375 0.011149787 -0.006005395 -0.0033637923 -0.005821133 -0.0062484695 -0.0060506286
-0.00596869 -0.0038230042 0.008478432 -0.0056985044 -0.0060058576 -0.006007718 -0.0028527877 -0.0062626116
00000000: 6ca2 c3bb ec3c c0bb 99ad 363c e8c8 c4bb
00000010: 1273 5cbb 34bf bebb f6bf ccbb 5a44 c6bb
00000020: 0095 c3bb 5e8b 7abb 1fe9 0a3c 85ba babb
00000030: c9cc c4bb 64dc c4bb d6f5 3abb 9836 cdbb

branch1.3.weight f4 [32, 16, 7, 7]
0.010269453 0.0002617038 -0.007979738 -0.0072060134 -0.0013444895 -0.0015806481 -2.9568106e-05 0.015106656
-0.00990429 -0.00075755746 -0.0060573556 0.017248603 0.009261579 0.017514743 -0.017685032 -0.011214962
0.00793034 0.030964756 0.023896715 -0.027311228 -0.0036302865 0.01235468 -0.0052747903 -0.009770947
0.004317886 -0.0030238214 -0.0012282379 0.005053311 0.012271027 -0.007629204 -0.0055648703 -0.00834036
-0.0009879918 -0.018808097 -0.0123784905 -0.0207213 -0.010300853 -0.00089438923 -5.6151403e-05 0.0055695595
-0.012755221 0.016501233 0.0027915267 -0.011695277 -0.013880004 -0.00023755206 -0.009394608 0.0015787225
0.022040332 -0.010320563 -0.013432354 -0.010539314 -0.006350707 -0.008082637 -0.0111360345 0.017583944
0.0047367346 -0.0066923024 -0.006328225 -0.0016403674 0.011215048 -0.017847154 -0.0025423872 -0.007819772
0.00028109248 0.009913846 -0.002519318 0.016169937 -0.008454298 -0.008024908 -0.009076049 0.0071396166
-0.004856469 -0.012232596 -0.007302325 -0.009201218 -0.020488923 -0.0048270863 0.0046062884 -0.00071529526
-0.0090898285 -0.002103013 0.0016722941 -0.00075801037 -0.015612998 -0.0053159087 -0.011211795 0.0023494188
-0.011158879 0.0016418403 -0.004963581 0.0025249782 -0.0067842775 -0.012575928 -0.0056271204 -0.0057009473
-0.0050303964 0.013989933 0.0051029366 0.0002795981 -0.011270887 0.0050962395 0.006448059 -0.0061428687
-4.858017e-05 -0.0046463227 0.0034965165 -0.0050044246 0.010237561 -0.013548138 0.003772141 0.007651548
0.004237178 0.0013628384 0.0056254095 -0.0068862326 0.00014635526 0.0152005805 -0.0043737665 -0.005640954
-0.009698542 -0.005378267 -0.0006341106 -0.011963021 0.0015257953 0.006195721 0.009420131 -0.016363336
0.015663596 0.0011627007 -0.009142125 0.004268396 0.012550744 0.006096473 0.00088491495 -0.003690583
0.009513022 0.015190002 0.0006418987 -0.0069801565 -0.014580749 0.002481048 -0.0020902953 -0.00011309012
-0.011014517 0.011873787 0.006865648 0.0034428595 0.008033258 0.015306111 0.01653786 -0.0064447867
-0.015860438 -0.006299568 0.007796163 0.00084389345 -0.0032518725 -0.012466043 0.002571197 0.00014818073
0.016607722 0.009844965 0.0025341115 -0.016758308 0.0042763264 0.0058891503 -0.0021209698 -0.003251086
-3.8633698e-05 -0.010765599 0.008718917 -0.01039388 0.008630668 -0.004695105 0.0026834558 -0.008880076
0.005389039 -0.02888329 -0.0009342405 -0.008410303 0.008002023 -0.0019277144 -0.014697988 0.008814186
0.0019453628 -0.016260905 0.016625384 -0.007747374 -0.001777174 0.010587809 -0.000838844 -0.017068682
0.0030317097 0.0069482746 0.009075259 -0.00780439 0.014182937 -0.01611066 -0.017181084 -0.00678038
0.0012961656 -0.009168329 0.014820915 0.0019371223 -0.013368948 -0.006369687 -0.0033751503 -0.007580293
0.004284422 -0.0096961865 -0.013936406 -0.0072921757 -0.007272606 0.007909607 -0.00561323 -0.014111783
-0.012593565 -0.003500632 -0.009402748 0.0068304185 -0.0011507826 -0.0056931307 0.012948087 -0.013855618
-0.014905412 -0.015193865 -9.6792086e-05 -0.0068070926 0.0009793628 -0.01490015 -0.0079000145 -0.012674399
0.00057532673 -0.009600841 -0.006759978 -0.0023498144 -0.021804476 -0.005992248 -0.008922776 -0.00018698283
0.002063258 -0.0009543386 -0.00074303866 -0.005038865 -0.013754168 -0.0058131795 -0.010101157 -0.0022433104
-0.0003684526 0.0081418445 0.017018212 0.0037819373 -0.0054443367 -0.0024214727 -0.0061423965 -0.0011052551
00000000: 3541 283c 4a35 8939 72bd 02bc 6c20 ecbb
00000010: 9539 b0ba c02d cfba 0609 f8b7 e881 773c
00000020: 9a45 22bc d296 46ba c87c c6bb f14c 8d3c
00000030: e1bd 173c 147b 8f3c 33e0 90bc f6be 37bc
00000040: 42ee 013c cda9 fd3c 0bc3 c33c ccbb dfbc
00000050: 1aea 6dbb 496b 4a3c 26d8 acbb 5216 20bc
00000060: 0e7d 8d3b 4e2b 46bb d3fc a0ba 3f96 a53b
00000070: 6b0c 493c 67fe f9bb 8459 b6bb 01a6 08bc
00000080: 817f 81ba 7013 9abc 27cf 4abc b7bf a9bc
00000090: e9c4 28bc 7275 6aba 1c84 6bb8 da80 b63b
000000a0: 46fb 50bc 982d 873c 0cf2 363b 8c9d 3fbc
000000b0: f568 63bc 6517 79b9 d8eb 19bc 23ed ce3a
000000c0: ed8d b43c 9417 29bc 6013 5cbc 16ad 2cbc
000000d0: 9719 d0bb 096d 04bc ea73 36bc 340c 903c
000000e0: 9c36 9b3b 1a4b dbbb 005d cfbb 9901 d7ba
000000f0: 52bf 373c 3234 92bc 2e9e 26bb 801e 00bc
00000100: 985f 9339 af6d 223c 241b 25bb d176 843c
00000110: e583 0abc e77a 03bc b5b3 14bc 72f3 e93b
00000120: 0423 9fbb 3a6b 48bc 5848 efbb b5c0 16bc
00000130: 63d8 a7bc 892c 9ebb 59f0 963b a782 3bba
00000140: 81ed 14bc b4d2 09bb e130 db3a 37b5 46ba
00000150: a9cd 7fbc 1331 aebb adb1 37bc b5f8 193b
00000160: bbd3 36bc 0533 d73a 89a5 a2bb 1b7a 253b
00000170: a54e debb 440b 4ebc b563 b8bb 03cf babb
00000180: 06d6 a4bb 0836 653c 8936 a73b 0697 9239
00000190: 87a9 38bc 5bfe a63b 3d4a d33b 1e4a c9bb
000001a0: 8fc2 4bb8 2e40 98bb d025 653b 28fc a3bb
000001b0: 71bb 273c 02f9 5dbc 0636 773b d6b9 fa3b
000001c0: 06d8 8a3b 45a1 b23a 5b55 b83b e8a5 e1bb
000001d0: f176 1939 db0b 793c d051 8fbb c0d7 b8bb
000001e0: a2e6 1ebc 2c3c b0bb 713a 26ba 8c00 44bc
000001f0: 32fd c73a 7a05 cb3b e556 1a3c 670c 86bc
00000200: f150 803c c365 983a dac8 15bc e7dd 8b3b
00000210: a3a1 4d3c ecc4 c73b a3f9 673a b5dd 71bb
00000220: 82dc 1b3c 7cdf 783c 1845 283a ccb9 e4bb
00000230: 18e4 6ebc 1499 223b 56fd 08bb cc2a edb8
00000240: 3c76 34bc 468a 423c 3bf9 e03b 99a1 613b
00000250: ed9d 033c 7cc6 7a3c 687a 873c ca2e d3bb
00000260: c0ed 81bc 9b6c cebb f576 ff3b bb38 5d3a
00000270: 5e1d 55bb 603e 4cbc 8781 283b f660 1b39
00000280: eb0c 883c c74c 213c 5613 263b b848 89bc
00000290: 6d20 8c3b c6f9 c03b f8ff 0abb 2c10 55bb
000002a0: 9e0a 22b8 3262 30bc cad9 0e3c 184b 2abc
000002b0: a567 0d3c 65d9 99bb ebdc 2f3b bd7d 11bc
000002c0: 8996 b03b a69c ecbc d2e7 74ba 5ecb 09bc
000002d0: eb1a 033c 5dab fcba d4cf 70bc 6069 103c
000002e0: 8bfb fe3a 9735 85bc f531 883c afdd fdbb
000002f0: 10f0 e8ba 7d78 2d3c dee5 5bba 9fd3 8bbc
00000300: a6af 463b 5aae e33b 65b0 143c f8bb ffbb
00000310: 8d5f 683c 81fa 83bc 58bf 8cbc f32d debb
00000320: 1ae4 a93a c236 16bc 6cd3 723c 0ae7 fd3a
00000330: 6f09 5bbc cfb8 d0bb a031 5dbb 1b64 f8bb
00000340: 5664 8c3b c1dc 1ebc 8655 64bc 34f3 eebb
00000350: 0a4f eebb 4c97 013c 30ef b7bb 1c35 67bc
00000360: 3d55 4ebc dc6a 65bb fc0d 1abc b4d1 df3b
00000370: dbd5 96ba 718d babb 3724 543c ad02 63bc
00000380: d435 74bc b0ef 78bc dbfc cab8 080e dfbb
00000390: f65d 803a c21f 74bc 106f 01bc 48a8 4fbc
000003a0: 86d1 163a d94c 1dbc ce82 ddbb 58ff 19bb
000003b0: 4d9f b2bc 9f5a c4bb d630 12bc d210 44b9
000003c0: ba37 073b 942c 7aba 7bc8 42ba 101d a5bb
000003d0: 2959 61bc 7c7c bebb 537f 25bc 8104 13bb
000003e0: df2c c1b9 5f65 053c c769 8b3c 61da 773b
000003f0: 6866 b2bb 92b1 1ebb 2846 c9bb 35de 90ba

branch1.3.bias f4 [32]
-0.0074161845 -0.006015788 -0.0037150232 -0.006005507 -0.005121303 -0.004085444 -0.0034638727 -0.0069256164
-0.006102266 -0.0060113776 -0.00395623 -0.00600565 -0.00082902337 -0.004000084 -0.0065584085 -0.0060055074
-0.0068826987 -0.0060055694 -0.0033822886 -0.006012087 -0.0057038586 -0.006008916 -0.006005142 -0.0060072136
-0.006008781 -0.0028451416 -0.003866461 -0.0036885554 -0.0060565136 -0.006008984 -0.005992149 -0.0060602278
00000000: 7703 f3bb 1620 c5bb bf77 73bb d8c9 c4bb
00000010: 9ad0 a7bb 30df 85bb 2402 63bb 48f0 e2bb
00000020: 84f5 c7bb 17fb c4bb 43a3 81bb 0bcb c4bb
00000030: d152 59ba 2313 83bb ebe7 d6bb d9c9 c4bb
00000040: 4388 e1bb 5eca c4bb 63a9 5dbb 0b01 c5bb
00000050: 6fe7 babb 71e6 c4bb c8c6 c4bb 29d8 c4bb
00000060: 4fe5 c4bb 8e75 3abb 7464 7dbb b1bb 71bb
00000070: b875 c6bb 03e7 c4bb ca59 c4bb e094 c6bb

branch1.6.weight f4 [16, 32, 7, 7]
-0.0061747115 -0.015501976 0.0016440323 -0.0062980647 0.02385783 -0.01586967 0.0036650065 -0.01763827
0.01277984 0.0037825839 0.008995505 -0.009975796 0.0030556496 -0.021939443 -0.0027760195 -0.0072801984
-0.002277985 -0.023226347 -0.0048072324 -0.013826967 -0.010056267 0.00089952495 -0.011529781 -0.0032674975
-0.002278235 -0.0035347024 0.00016575058 0.008906972 0.0048385086 0.016261946 0.011384448 -0.004091985
0.00084176083 0.014905676 -0.002844392 -0.016975233 0.012289678 0.000114325194 0.014066736 0.020654637
-0.038596433 -0.006014785 0.0002957509 0.005090038 0.005912198 -0.006705567 -0.016672976 -0.017665226
-0.01852071 -0.009155425 -0.0073652244 -0.011538437 -0.018512538 -0.008926068 -0.002646277 0.017713038
-0.014990842 -0.00028652078 0.013756919 -0.017612424 -0.010476249 -0.00480209 -0.021740466 -0.01805704
0.009002686 -0.02250282 -0.008159853 -0.0086765485 -0.008139999 -0.005665533 0.0046793018 -0.0062020035
-0.016637346 -0.008480455 -0.011956414 0.0035931836 -0.0044060755 -0.0044309073 -0.0151026 -0.03220759
-0.0057383324 -0.0070548723 -0.0019266902 -0.003527728 -0.0112722535 -0.0014328002 -5.275979e-05 -0.008680635
-0.018102547 -0.003630722 0.0005775171 -0.0022614216 -0.001983695 0.0068451446 0.0010436749 -0.0175268
-0.012656209 -0.0042621614 -4.4678745e-05 -0.00018098502 0.0019000231 -0.016753618 -0.004408325 -0.0050042267
-0.0067653824 -0.006864388 -0.030307546 -0.006906855 -0.016221972 -0.0054559894 -0.0090820445 -0.013491466
-0.009561144 -0.012266136 0.007039725 -0.01211823 0.0023080944 0.009002131 -0.017709874 -0.019654633
-0.027037753 -0.0088170925 0.00022735592 -0.007729345 -0.0001728418 0.0034387994 -0.01061122 -0.026761418
0.002798072 0.0026522393 -0.0031715594 -0.010536374 -0.0069862823 -0.003563983 -0.006929329 -0.019407053
-0.010422657 -0.014037444 -0.0031095645 0.009915501 -0.013237201 -0.006593572 -0.006829854 0.0025747742
0.005339094 0.009572879 -0.016020082 0.0014260056 -0.0390316 0.0052699647 -0.024044108 -0.008846068
-0.009156887 0.0051719267 -0.01207246 -0.013634639 -0.008665116 0.0032961979 0.007935048 0.0008024051
-0.0040219743 -0.0030437836 -0.006829614 -0.003721377 0.0049700304 -0.0024489344 -0.0030432967 0.0014463696
-0.0051450306 0.0068283295 -0.010726639 -0.019521791 -0.011585149 -0.0063706697 0.00089032116 0.000398563
-0.0070227133 -0.0018271344 -0.015313344 0.005011922 -0.008553431 -0.0055654203 -0.008367809 -0.00782532
-0.033822615 -0.0142661575 -0.015930837 -0.011203038 -0.0044722185 0.0048166974 -0.0037565902 -0.0024182093
-0.020689223 -0.015723538 0.008016847 -0.0036746096 -0.0044071525 -0.011905468 2.671362e-05 -0.008847504
0.00966692 0.019479243 -0.0005046868 -0.0044163433 -0.007970948 -0.011715183 0.0002765207 -0.01998209
0.0074772844 0.00017903378 -0.018724913 -0.009636624 0.0030284487 -0.018896123 -0.0015673402 -0.0014611566
-0.0072635403 -0.022014158 -0.0029880684 -0.00650443 -0.0077108247 -0.015206903 0.0039370744 -0.01572444
-0.013287831 0.005262034 -0.011472967 -0.008849633 -0.012838072 -0.02072607 -0.015089046 0.0022354778
0.002991171 -0.008066185 -0.006012013 0.0083715 -0.006737842 0.018737992 -0.010176406 -0.008820909
-0.008111501 -0.01317952 0.0021850008 -0.0035366265 -0.025411073 0.0031960027 -0.0061878897 -0.010056539
0.009673203 -0.01932437 -0.013514298 -0.011270814 -0.0015054658 0.00026763958 -0.011588758 -0.009709322
00000000: 3c55 cabb 00fc 7dbc 927c d73a ff5f cebb
00000010: 7f71 c33c 1c01 82bc 9b30 703b 227e 90bc
00000020: 8962 513c 3ae5 773b e261 133c 8571 23bc
00000030: 4b41 483b 59ba b3bc e1ed 35bb bb8e eebb
00000040: 3f4a 15bb 2e45 bebc fd85 9dbb 818a 62bc
00000050: 0ac3 24bc 19ce 6b3a 68e7 3cbc 8323 56bb
00000060: 714e 15bb 77a6 67bb 55cd 2d39 8cee 113c
00000070: 5a8c 9e3b c637 853c d685 3a3c 0f16 86bb
00000080: 9da9 5c3a f036 743c fb68 3abb a50f 8bbc
00000090: a55a 493c dfc1 ef38 2b78 663c ea33 a93c
000000a0: 4b17 1ebd ac17 c5bb 040f 9b39 55ca a63b
000000b0: 1dbb c13b 5fba dbbb c495 88bc aab6 90bc
000000c0: beb8 97bc a300 16bc fb57 f1bb b60b 3dbc
000000d0: 9ba7 97bc a53e 12bc 296d 2dbb ef1a 913c
000000e0: 269c 75bc 2b38 96b9 b364 613c ee47 90bc
000000f0: 93a4 2bbc da5a 9dbb 1019 b2bc 5cec 93bc
00000100: 0080 133c d557 b8bc e7b0 05bc 1528 0ebc
00000110: a15d 05bc efa5 b9bb d454 993b 2d3a cbbb
00000120: 0b4b 88bc 9bf1 0abc d6e4 43bc 9e7b 6b3b
00000130: d760 90bb 2531 91bb e570 77bc 1bec 03bd
00000140: 9f08 bcbb 8f2c e7bb ff88 fcba 7431 67bb
00000150: 42af 38bc cccc bbba 654a 5db8 3939 0ebc
00000160: cb4b 94bc 68f1 6dbb 8464 173a 5c34 14bb
00000170: e100 02bb 3c4d e03b ebcb 883a 5d94 8fbc
00000180: fd5b 4fbc 9aa9 8bbb 7065 3bb8 ccc6 3db9
00000190: 320a f93a e23e 89bc b673 90bb 7ffa a3bb
000001a0: 24b0 ddbb a9ee e0bb 8847 f8bc e652 e2bb
000001b0: f1e3 84bc 28c8 b2bb dbcc 14bc 4f0b 5dbc
000001c0: 58a6 1cbc e7f7 48bc 7ead e63b 8a8b 46bc
000001d0: 6643 173b ad7d 133c 4c14 91bc c102 a1bc
000001e0: 477e ddbc 9175 10bc 6466 6e39 7246 fdbb
000001f0: de3c 35b9 7b5d 613b afda 2dbc c33a dbbc
00000200: dc5f 373b 31d1 2d3b f0d9 4fbb c1a0 2cbc
00000210: 2fed e4bb b691 69bb 6d0f e3bb 8afb 9ebc
00000220: cbc3 2abc 4ffd 65bc d6c9 4bbb a074 223c
00000230: d8e0 58bc e40e d8bb f8cc dfbb 8bbd 283b
00000240: 91f3 ae3b 91d7 1c3c 8c3c 83bc cfe8 ba3a
00000250: 99df 1fbd abaf ac3b 26f8 c4bc 19ef 10bc
00000260: c506 16bc 4479 a93b 91cb 45bc d263 5fbc
00000270: 21f8 0dbc 0605 583b 0102 023c 7f58 523a
00000280: c4ca 83bb 377a 47bb f4ca dfbb 59e2 73bb
00000290: a3db a23b 4d7e 20bb 0c72 47bb 1c94 bd3a
000002a0: a597 a8bb 2ec0 df3b c9be 2fbc 2aec 9fbc
000002b0: a3cf 3dbc 0dc1 d0bb 7164 693a 38f6 d039
000002c0: ca1e e6bb 757c efba d2e4 7abc 0d3b a43b
000002d0: b123 0cbc 215e b6bb 2219 09bc c535 00bc
000002e0: 9589 0abd 9abc 69bc 6381 82bc f28c 37bc
000002f0: b08b 92bb 63d5 9d3b 2031 76bb d27a 1ebb
00000300: 727c a9bc a6ce 80bc 1859 033c b8d1 70bb
00000310: e069 90bb 270f 43bc 1017 e037 1ff5 10bc
00000320: 0062 1e3c ef92 9f3c f54c 04ba f9b6 90bb
00000330: 9498 02bc 0af1 3fbc fbf9 9039 7bb1 a3bc
00000340: 0204 f53b 04bb 3b39 fd64 99bc eee2 1dbc
00000350: f078 463b 0bcc 9abc 366f cdba 4884 bfba
00000360: fe02 eebb 0957 b4bc 78d3 43bb 1d23 d5bb
00000370: 16ab fcbb 6026 79bc 9302 813b 8ad0 80bc
00000380: 34b5 59bc 246d ac3b 1df9 3bbc 0dfe 10bc
00000390: c756 52bc b8c9 a9bc 0c38 77bc 1881 123b
000003a0: 8607 443b 0828 04bc 6c00 c5bb 9e28 093c
000003b0: 1ec9 dcbb 6b80 993c f1ba 26bc 9385 10bc
000003c0: 1ae6 04bc eaee 57bc 3b32 0f3b bfc6 67bb
000003d0: e22a d0bc 0774 513b c8c3 cabb 2fc4 24bc
000003e0: 5b7c 1e3c 244e 9ebc 136b 5dbc 38a9 38bc
000003f0: 0d53 c5ba fa51 8c39 c6de 3dbc d913 1fbc

branch1.6.bias f4 [16]
-0.0060055065 -0.006005649 -0.002621166 -0.004120171 -0.0060055074 -0.00442248 -0.002576961 -0.0059808986
-0.0060055074 -0.006005508 -0.006005506 -0.0060061575 -0.004247475 -0.006007018 -0.0030085968 -0.0042284615
00000000: d7c9 c4bb 09cb c4bb dec7 2bbb 8002 87bb
00000010: d9c9 c4bb 73ea 90bb 3be2 28bb 6afb c3bb
00000020: d9c9 c4bb dac9 c4bb d6c9 c4bb 4dcf c4bb
00000030: 672e 8bbb 85d6 c4bb e12b 45bb e88e 8abb

branch1.8.weight f4 [8, 16, 7, 7]
-0.009307307 0.007137754 -0.01947903 0.004213688 0.004343395 0.007297263 -0.010308679 -4.7369926e-05
-0.0043840115 -0.014725223 0.006187096 -0.016269904 0.0025218553 -0.022287058 0.025201943 -0.0035133802
0.013570267 -0.0002843445 0.0021084228 -0.0028314318 0.0082242275 -0.006010629 -0.009233314 0.0028972072
-0.000824596 -0.003860303 -0.0005792442 0.017806025 -0.0069741723 0.0037035565 0.00031173058 -0.01524455
-0.010959715 0.007947038 0.005460856 0.0064695245 -0.0010407846 -0.011634956 0.0009896522 -0.0043922975
-0.007773096 -0.012736158 -0.002877784 0.012615771 -0.004195394 -0.0063581998 0.0055169244 -0.00817616
0.0062422156 0.0026124723 -0.009295842 -0.010466554 0.0015098947 -0.014973393 -0.021774372 -0.008171507
-0.010700084 0.02556208 -0.00850086 0.0051284856 -0.0048743095 0.0005471493 -0.009056437 0.015190425
-0.01976393 -0.0072643836 -0.024214678 -0.009561859 0.004381202 -0.022740519 -0.013365147 -0.00264546
-0.010526632 0.017160134 -0.009922213 -0.008515497 0.004150552 -0.0041731843 -0.0010357597 -0.014417951
-0.0018040678 -0.014748702 -0.007646972 0.008035484 0.013335231 -0.010690272 0.002894447 0.018465746
-0.032349892 -0.0056356424 -0.017317101 0.006056095 0.0005007578 0.011648976 0.007080726 -0.0138059
0.005501278 -0.0071299192 0.003311377 -0.021337459 -0.01842696 -0.030538253 -0.013465347 0.000112161986
0.013971695 0.0021382307 -0.0032327354 -0.014408257 -0.01268173 -0.00035792228 -0.004793953 0.013723263
-0.016472112 -0.0025169665 -0.009290128 -0.011761219 -0.0101130465 0.0018314341 -0.012360447 0.0063276067
0.003299954 -0.0004449974 -0.01415772 0.012458099 0.007436618 0.005767067 -0.016800852 -0.0041798195
0.009838989 0.010629801 -0.016409257 0.0011193886 -0.000827723 -0.014459319 -0.015207862 -0.01212122
-0.009273483 0.0033096087 -0.012596314 0.0004910673 -0.021073032 -5.0319624e-05 0.0017499287 -0.0130135305
-0.0057392246 -0.00091680285 -0.013673499 -0.009286659 -0.014535767 -0.014347647 0.008678775 0.022352286
0.024539946 -0.0057977336 0.013990066 -0.0067516495 0.006751112 -0.019959169 -0.016892798 -0.0042934953
0.0074382727 0.0005436597 -0.013330808 0.012865173 -0.0048171286 -0.01975784 -0.008655839 0.002429416
-0.0135746505 -0.01145886 -0.016481267 0.016445728 -0.0014430851 0.0003774549 -0.002972368 0.008196528
-0.009240834 -0.01375709 -0.015855743 -0.008832986 0.015290614 -0.003518739 -0.0077051027 0.0023807886
-0.016569486 -0.010577436 0.01516048 -0.004105501 -0.0013990273 -0.008204932 0.00541811 -0.011173392
-0.010697402 -0.0055709286 -0.00017077112 -0.012970928 0.005541635 0.0093007125 -0.0010521867 0.014224728
-0.0055211037 0.0065606367 -0.022265036 0.013768763 0.017221285 -0.00514441 0.00089041726 0.0006149998
0.014481636 -0.009729475 -0.01593792 0.013621579 -0.008448787 -0.0009016203 0.0030997668 0.0034059274
0.0061080093 0.02278474 -0.015481967 0.03313847 -0.016045824 -0.0026074185 -0.007652188 -0.0028710177
-0.0025792127 -0.0011419943 0.01894028 -0.0040346887 -0.0020191611 -0.009989771 -0.020643307 0.01147876
0.004153751 0.0015716836 0.0014613047 0.012999705 0.00028509 -0.0026886945 0.00392851 -0.016437566
0.0043841787 0.011776753 0.008020973 0.0021525028 -0.0028457884 -0.00081393024 -0.0048873397 -0.015316752
-0.013200492 0.0023900922 -0.02466797 0.0046048122 -0.019532809 -0.007523169 -0.0025392747 -0.016094087
00000000: ad7d 18bc d2e3 e93b 7d92 9fbc fa12 8a3b
00000010: 0a53 8e3b e11d ef3b bce5 28bc 12af 46b8
00000020: c1a7 8fbb 1042 71bc 1fbd ca3b 7648 85bc
00000030: b645 253b 5993 b6bc 4e74 ce3c bd40 66bb
00000040: d355 5e3c 1314 95b9 772d 0a3b 8b8f 39bb
00000050: e9be 063c cff4 c4bb 5347 17bc 12df 3d3b
00000060: b329 58ba 23fd 7cbb 6cd8 17ba f1dd 913c
00000070: 9987 e4bb 5eb7 723b c56f a339 47c4 79bc
00000080: 6090 33bc 4b34 023c fbf0 b23b 4efe d33b
00000090: f06a 88ba 8ba0 3ebc 38b7 813a 43ed 8fbb
000000a0: 75b5 febb 52ab 50bc 3499 3cbb 61b2 4e3c
000000b0: 8479 89bb 7258 d0bb 51c7 b43b 4df5 05bc
000000c0: 808b cc3b 0336 2b3b 964d 18bc e97b 2bbc
000000d0: a9e7 c53a f652 75bc 2b60 b2bc c9e1 05bc
000000e0: 684f 2fbc 9167 d13c 3147 0bbc db0c a83b
000000f0: acb8 9fbb 916e 0f3a 7361 14bc 43e1 783c
00000100: f7e7 a1bc 110a eebb dc5d c6bc 58a9 1cbc
00000110: 3090 8f3b 534a babc 7df9 5abc 745f 2dbb
00000120: e577 2cbc 6993 8c3c c790 22bc 9584 0bbc
00000130: 5b01 883b 35bf 88bb 54c2 87ba 4539 6cbc
00000140: 7876 ecba 8aa4 71bc 7393 fabb 43a7 033c
00000150: 037c 5a3c 4026 2fbc c3b0 3d3b 7a45 973c
00000160: 5281 04bd 32ab b8bb 98dc 8dbc 3572 c63b
00000170: 4945 033a 59db 3e3c 6f05 e83b 2432 62bc
00000180: 1144 b43b 19a2 e9bb b003 593b e5cb aebc
00000190: 23f4 96bc 5c2b fabc c29d 5cbc 8238 eb38
000001a0: 89e9 643c 8f21 0c3b 4ddc 53bb 9c10 6cbc
000001b0: 08c7 4fbc 84a7 bbb9 9816 9dbb 89d7 603c
000001c0: 86f0 86bc b1f3 24bb 9f35 18bc 21b2 40bc
000001d0: 31b1 25bc bb0c f03a 7983 4abc d057 cf3b
000001e0: 0b44 583b 8a4e e9b9 c8f5 67bc 0e1d 4c3c
000001f0: e0ae f33b aaf9 bc3b f1a1 89bc def6 88bb
00000200: b633 213c 9e28 2e3c b56c 86bc 73b8 923a
00000210: 8dfb 58ba c8e6 6cbc 652a 79bc 1598 46bc
00000220: cfef 17bc 05e6 583b c560 4ebc f8ba 003a
00000230: 5aa1 acbc 490e 53b8 dd5d e53a b436 55bc
00000240: 1b10 bcbb 9955 70ba d006 60bc 1227 18bc
00000250: 6d27 6ebc 6512 6bbc 6c31 0e3c 241c b73c
00000260: ff07 c93c eafa bdbb 9736 653c f13c ddbb
00000270: 6f38 dd3b 6981 a3bc c462 8abc 73b0 8cbb
00000280: c1bc f33b 6384 0e3a 7669 5abc 72c8 523c
00000290: 01d9 9dbb 32db a1bc 38d1 0dbc d636 1f3b
000002a0: 3668 5ebc f1bd 3bbc b903 87bc 31b9 863c
000002b0: e725 bdba 24e5 c539 0fcc 42bb bb4a 063c
000002c0: de66 17bc 6b65 61bc e7e3 81bc 3ab8 10bc
000002d0: 7c85 7a3c a59a 66bb 167b fcbb 0107 1c3b
000002e0: bbbc 87bc fb4c 2dbc a963 783c 7087 86bb
000002f0: 915f b7ba fb6d 06bc 678a b13b 9a10 37bc
00000300: 2844 2fbc 568c b6bb 0611 33b9 0484 54bc
00000310: 9b96 b53b 0462 183c 87e9 89ba d50e 693c
00000320: 60ea b4bb 9cfa d63b 2a65 b6bc 6196 613c
00000330: a713 8d3c 7092 a8bb e46a 693a f037 213a
00000340: 6244 6d3c 6068 1fbc 3e90 82bc 0b2d 5f3c
00000350: c86c 0abc b75a 6cba 7525 4b3b fb35 5f3b
00000360: b225 c83b 10a7 ba3c 13a8 7dbc 34bc 073d
00000370: 8872 83bc 39e1 2abb 35bf fabb af27 3cbb
00000380: 0208 29bb f8ae 95ba a528 9b3c 6c35 84bb
00000390: e753 04bb 23ac 23bc 271c a9bc 6911 3c3c
000003a0: 301c 883b f300 ce3a 4089 bf3a b7fc 543c
000003b0: 2278 9539 cf34 30bb bbba 803b 13a8 86bc
000003c0: 28a9 8f3b 48f3 403c 666a 033c 0111 0d3b
000003d0: 6880 3abb ef5d 55ba fa25 a0bb 1df3 7abc
000003e0: e046 58bc 18a3 1c3b 7c14 cabc f7e3 963b
000003f0: 4503 a0bc ea84 f6bb f669 26bb bfd7 83bc

branch1.8.bias f4 [8]
-0.0060315947 -0.0060055074 -0.006005489 -0.0037695735 -0.0044503766 -0.0060053715 -0.0022021993 -0.0060055065
00000000: afa4 c5bb d9c9 c4bb b1c9 c4bb f30a 77bb
00000010: 77d4 91bb b5c8 c4bb c652 10bb d7c9 c4bb

branch2.0.weight f4 [20, 3, 7, 7]
-0.013028516 -0.018679349 -0.0121834 -0.008522014 -0.004875076 -0.019615281 0.008748334 -0.016832082
0.010714289 0.0025371672 0.0059077726 0.00236795 -0.014599642 -0.01567865 -0.0155046685 -0.00087342074
-0.01354462 0.02287024 -0.0019283576 -0.01147484 0.02126066 -0.0055917506 0.0005166123 -0.008335933
-0.0018573226 -0.0011335212 0.0060233218 -0.00918172 -0.004885235 -0.006243687 -0.0066808243 -0.0063654906
0.0028382705 -0.011500626 0.009101785 -0.008941834 -0.024060769 -0.0099195475 -0.021494694 -0.0103014335
-0.017584037 -0.03280786 -0.004902245 -0.013523882 -0.0056060203 -0.010592612 -0.009319894 -0.025072176
-0.016880019 0.0056477925 -0.026552858 -0.006836401 -0.0161884 0.008438715 -0.0034680613 -0.006472043
-0.020148765 -0.0042960616 -0.005880593 -0.015297337 -0.007620596 -0.024730554 -0.01201337 0.0043980735
-0.010660102 -0.011422109 -0.0027227732 -0.015740093 0.0011545568 -0.0039365175 -0.013166136 -0.0073862043
-0.009556813 -0.01577547 -0.022859477 -0.0019680972 -0.006673289 -0.0108613055 -0.007990624 -0.025704267
0.009551131 0.007708116 -0.008530943 -0.007091893 -0.0045403414 -0.00262971 5.664503e-05 -0.029367695
-0.0016101697 -0.002438846 0.0026319 0.013687651 -0.022177676 0.0034099382 0.0069005243 -0.00773999
-0.007964904 0.00014873188 -0.016616521 0.005275259 -0.030947717 -0.02087744 -0.01058902 -0.011257419
0.0035283486 -0.0011965546 -0.013758452 -0.014367436 0.0075704143 -0.017884664 -0.006055133 -0.005693285
-0.0019136833 -0.014353431 0.0047684982 0.00792045 -0.0064665205 0.00949505 -0.008801003 -0.017503329
-0.017683081 -0.012296453 -0.00082142453 -0.026747739 -0.003998561 -0.013902286 -0.011729875 0.0034875795
-0.0016580187 -0.008180184 0.011472724 -0.0016094494 -0.0030619467 0.0018068368 -0.0085631935 -0.0024114507
-0.003540631 -0.010162961 -0.0046031065 -0.0120677 -0.017119478 -0.017696664 -0.012556971 0.005085025
0.0070776017 0.020299854 -0.006643922 -0.017754635 0.007319543 -0.015941804 -0.003088292 -0.0020278732
-0.0007717498 0.0048114844 -0.0095952675 0.009832408 0.001069177 -0.0132011 -0.0023380958 -0.011613812
-0.016017936 0.00255654 -0.01916781 -0.017250061 0.012566116 -0.007696819 -0.016285008 -0.0049529867
-0.010053835 0.0059902235 0.0005642458 -0.0093528805 -0.009801099 -0.0015247713 -0.0064096525 -0.006756669
-0.01810943 -0.025106648 0.0045415633 0.008798053 -0.00210333 0.01809842 -0.003473951 -0.00717748
-0.008212728 -0.010834168 0.02589132 -0.012889512 -0.016123807 -0.021648662 0.005235303 -0.014643577
-0.026127819 0.0025920696 -0.012660356 -0.015049808 -0.013720592 -0.012009887 0.008951749 -0.0009781474
0.00033078075 -0.0050531323 -0.00080880173 -0.006227228 -0.0036125658 -0.016043449 -0.017806917 -0.013691869
-0.012420287 0.0021040908 0.003581813 -0.015424959 -0.011044938 -0.012845755 -0.008015151 0.023954501
-0.0104806265 -0.023424866 0.009835205 0.0008170818 -0.015486395 -0.0023721026 -0.018260045 -0.017790873
-0.0134066595 0.005107788 0.0011474179 -0.010356429 0.00040029414 -0.009902685 -0.002778701 0.0006242163
0.0051429644 -0.008577203 0.015731208 -0.032828387 0.0013712642 0.011106546 0.0026597371 -0.009129396
-0.0046980036 -0.011431405 -0.0027494198 -0.017097604 -0.016991463 -0.013343653 -0.005428925 -0.0073124194
-0.020662073 0.009862912 -0.005226164 -0.008465486 -0.025819466 -0.0063385386 -0.003922648 0.008318778
00000000: 8f75 55bc 6f05 99bc e29c 47bc eb9f 0bbc
00000010: 1abf 9fbb 3ab0 a0bc 2c55 0f3c 6fe3 89bc
00000020: fc8a 2f3c 9a46 263b fd95 c13b 9c2f 1b3b
00000030: 5633 6fbc 8370 80bc 4b07 7ebc 46f6 64ba
00000040: 41ea 5dbc 5f5a bb3c f2c0 fcba f800 3cbc
00000050: d62a ae3c 013b b7bb 446d 073a 7093 08bc
00000060: 6871 f3ba a992 94ba 495f c53b ed6e 16bc
00000070: 5214 a0bb d897 ccbb d1ea dabb 9b95 d0bb
00000080: 4702 3a3b 1f6d 3cbc a71f 153c c580 12bc
00000090: 171b c5bc 9985 22bc a415 b0bc 58c7 28bc
000000a0: 660c 90bc 8961 06bd 03a3 a0bb 4693 5dbc
000000b0: b5b2 b7bb a38c 2dbc 78b2 18bc 2a64 cdbc
000000c0: f747 8abc 1e11 b93b 6185 d9bc e303 e0bb
000000d0: 899d 84bc 8942 0a3c 6a48 63bb 6f13 d4bb
000000e0: 060f a5bc fac5 8cbb fdb1 c0bb afa1 7abc
000000f0: 31b6 f9bb bb97 cabc bad3 44bc b71d 903b
00000100: b5a7 2ebc cc23 3bbc 8e70 32bb 5ef1 80bc
00000110: 7f54 973a e7fd 80bb c7b6 57bc f907 f2bb
00000120: 2e94 1cbc 8f3b 81bc cc43 bbbc 31fb 00bb
00000130: 9bab dabb 9ef3 31bc 1beb 02bc c191 d2bc
00000140: 597c 1c3c 5d94 fc3b 5ec5 0bbc 1c63 e8bb
00000150: 25c7 94bb 3657 2cbb 2396 6d38 8594 f0bc
00000160: 540c d3ba 0cd5 1fbb f47b 2c3b 2b42 603c
00000170: f5ad b5bc 4579 5f3b cb1d e23b be9f fdbb
00000180: 3b7f 02bc e9f4 1b39 5f1f 88bc 14dc ac3b
00000190: 1186 fdbc 2a07 abbc 927d 2dbc 0a71 38bc
000001a0: de3b 673b b6d5 9cba 216b 61bc 6565 6bbc
000001b0: 3d11 f83b dc82 92bc 236a c6bb bc8e babb
000001c0: 8ed4 faba a72a 6bbc 1041 9c3b c6c4 013c
000001d0: 1be5 d3bb 2091 1b3c 1532 10bc 2463 8fbc
000001e0: 1cdc 90bc 1077 49bc de54 57ba 131e dbbc
000001f0: 5c06 83bb 6ac6 63bc a92e 40bc e08f 643b
00000200: e051 d9ba 2e06 06bc 18f8 3b3c 29f4 d2ba
00000210: f1aa 48bb 62d3 ec3a a34c 0cbc 6e09 1ebb
00000220: ee09 68bb 8c82 26bc a8d5 96bb 9ab7 45bc
00000230: 263e 8cbc 98f8 90bc c1bb 4dbc 48a0 a63b
00000240: 3aeb e73b e14b a63c 42b5 d9bb 2b72 91bc
00000250: c7d8 ef3b 6398 82bc f164 4abb 11e6 04bb
00000260: 414f 4aba a8a9 9d3b 7835 1dbc 1c18 213c
00000270: a023 8c3a 6d49 58bc bd3a 19bb dc47 3ebc
00000280: 0c38 83bc a08b 273b d005 9dbc 0050 8dbc
00000290: 1ce2 4d3c 9935 fcbb 2368 85bc aa4c a2bb
000002a0: d7b8 24bc a349 c43b e5e9 133a d33c 19bc
000002b0: ca94 20bc d6da c7ba 1008 d2bb 0c67 ddbb
000002c0: 3a5a 94bc 75ac cdbc 65d1 943b b525 103c
000002d0: 06d8 09bb 2343 943c 3aab 63bb 1131 ebbb
000002e0: ae8e 06bc cb81 31bc 091a d43c 882e 53bc
000002f0: 1316 84bc 8958 b1bc e88c ab3b 9deb 6fbc
00000300: 020a d6bc b6df 293b 626d 4fbc 7893 76bc
00000310: 55cc 60bc 1ec5 44bc 5baa 123c 2e35 80ba
00000320: a46c ad39 bf94 a5bb c405 54ba c60d ccbb
00000330: ccc0 6cbb 8d6d 83bc d0df 91bc dc53 60bc
00000340: 767e 4bbc c9e4 093b dabc 6a3b f8b8 7cbc
00000350: d4f5 34bc 0077 52bc fb51 03bc 3b3c c43c
00000360: efb6 2bbc 81e5 bfbc d723 213c 6e31 563a
00000370: a6ba 7dbc 4775 1bbb 1796 95bc 2abe 91bc
00000380: 9ba7 5bbc 3b5f a73b f564 963a 03ae 29bc
00000390: 92de d139 df3e 22bc de1a 36bb 72a2 233a
000003a0: 5086 a83b 6687 0cbc bcde 803c 0f77 06bd
000003b0: febb b33a 3bf8 353c fc4e 2e3b 7693 15bc
000003c0: b6f1 99bb ca4a 3bbc 9c2f 34bb 4610 8cbc
000003d0: ae31 8bbc 569f 5abc 20e5 b1bb 059d efbb
000003e0: 8243 a9bc 0d98 213c 3e40 abbb d2b2 0abc
000003f0: 5883 d3bc 84b3 cfbb 8e89 80bb 7c4b 083c

branch2.0.bias f4 [20]
-0.008331943 -0.0086319195 -0.0035973527 -0.0021230916 -0.006062901 -0.0041511655 -0.0058921995 0.0013724238
-0.0059863674 -0.0033412601 -0.003944053 -0.0060315486 -0.00407145 -0.0060124923 -0.007698279 -0.00353798
-0.0062294146 -0.0060140886 -0.0034918631 -0.004076276
00000000: b482 08bc e56c 0dbc 90c1 6bbb 9123 0bbb
00000010: 4dab c6bb 8006 88bb 5a13 c1bb e7e2 b33a
00000020: 4a29 c4bb 0bf9 5abb 1d3d 81bb 4ca4 c5bb
00000030: cc69 85bb 7104 c5bb d841 fcbb 74dd 67bb
00000040: 1e20 ccbb d511 c5bb bed7 64bb 4892 85bb

branch2.3.weight f4 [40, 20, 5, 5]
-0.005783455 0.007990285 -0.011978125 0.0061172326 -0.016700817 0.0013980186 0.011248951 0.0017440931
-0.0102197 -0.007821586 -0.0032903454 0.005948359 0.0030291576 0.0046227146 0.027077546 0.010820341
0.0070022624 0.017642718 0.00036381994 0.031405967 0.001962954 -0.0012639904 -0.0025048144 0.0045399577
0.009699914 0.010697295 -1.8297393e-05 -0.019955747 -0.005184421 0.0078522265 -0.011524764 -0.012199717
-0.01704665 0.008519191 0.0063461503 0.011641231 0.005007896 -0.010620198 -0.007712341 -0.0112177795
0.012136375 0.01282359 0.01807626 0.0038487592 -0.0054229014 -0.001879945 0.0029082927 -0.006532468
0.007521765 0.0031857817 -0.0077553503 -0.020208962 -0.0144260395 -0.0033146497 -0.012165159 -0.014058549
-0.015418331 -0.002554875 -0.0064975484 -0.010799293 5.860084e-05 0.0051381974 -0.006898659 -0.0031653002
-0.00078530406 -0.0026644145 0.0029572719 0.016790057 -0.008915874 -0.0031956888 0.006010642 0.012244703
-0.019570185 -0.013012182 -0.0020374183 0.016575841 -6.7345376e-05 0.009850172 -0.00228278 -0.0051050186
-0.00012385077 -0.016553616 0.007414144 -0.0072070444 -0.005360664 -0.01893407 -0.004206987 -0.009394587
0.008052781 -0.0010728819 0.01187332 -0.01918941 -0.015552547 0.0030863376 -0.019543577 -0.0025424352
0.008036463 -0.0059579313 0.0018117409 -0.016515797 -0.003743332 0.022062367 -0.011295126 -0.0007940613
-0.0058309915 -0.010967049 -0.0077042757 0.0057758493 0.0038073824 0.0045895115 -0.006701106 -0.0018054924
0.0055655357 0.003347396 -0.001481199 0.0037530267 -0.011903692 0.004831325 0.016756551 0.0127795385
0.015984619 0.0012351219 -0.0014501065 -0.006974358 0.012348831 -0.009697412 -0.006685104 -0.008202436
0.0029277294 -0.009512254 -0.007024932 -0.0031574215 -0.0070250104 -0.0011616359 -0.008773483 0.010459131
-0.0013676161 -0.0038729007 -0.0020675836 -0.016670559 0.0014454579 0.010970083 -0.010648927 -0.0055442783
-0.007741463 0.0036566062 -0.0048520253 0.010044479 0.00014639556 0.013421571 -0.014071251 0.016990658
-0.00871816 0.005383031 -0.023431364 0.017715512 0.0030538435 -0.0010159451 -0.0044171987 -0.004250443
-0.021276904 0.011812891 -0.0097438665 0.009014349 -0.010161547 0.0058958963 -0.0053608855 -0.009852604
-0.020217199 0.011572016 0.0006479597 -0.020813562 0.0020559523 -0.009407628 -0.006400081 -0.00183568
-0.009226045 0.011289672 -0.014935798 -0.010735979 0.017630741 -0.01853848 -0.01112085 -0.015195555
0.007632674 -0.024601974 0.005236239 -0.0006398474 -0.0023953002 0.004049035 -0.014225636 -0.005532057
-0.0052682445 -0.012643177 -0.0002099286 -0.003874665 -0.0020251484 -0.0148681905 0.0018819728 -0.00720305
0.010981547 0.002314896 -0.0031039754 -0.003134784 0.007556071 0.0046738065 -0.010947325 -0.025625013
-0.01273638 0.011909803 -2.197267e-05 -0.006618242 0.0066686403 0.0016332059 0.018671533 0.0028632712
0.010016733 0.020236539 -0.009466265 0.017103558 -0.0060328715 -0.005465907 -0.0062102927 0.0030905833
-0.013658444 0.018400215 0.020287616 0.015306159 0.02502621 0.007732278 0.017137311 0.012396441
0.009609925 0.009319473 -0.019145904 0.018772857 0.006209729 0.019711562 0.016996395 0.014885539
0.0066215796 0.007725309 0.0041214232 0.031777784 0.013860726 0.016718823 0.020856144 0.0058973925
0.02919417 -0.00010785225 0.0039454484 0.007623256 -0.008828762 -8.3234736e-05 -0.004022457 0.0005595911
00000000: 2383 bdbb afe9 023c e63f 44bc 1173 c83b
00000010: 27d0 88bc b83d b73a 854d 383c 0e9a e43a
00000020: 8770 27bc 1c26 00bc d6a2 57bb 74ea c23b
00000030: d584 463b 247a 973b bbd1 dd3c cd47 313c
00000040: 3c73 e53b 7687 903c 16bf be39 8ba3 003d
00000050: e7a4 003b 7bac a5ba d027 24bb edc3 943b
00000060: 63ec 1e3c b543 2f3c 5a7d 99b7 3c7a a3bc
00000070: 13e2 a9bb a0a6 003c 5dd2 3cbc 52e1 47bc
00000080: 6ba5 8bbc 1494 0b3c 5ef3 cf3b ddba 3e3c
00000090: 4719 a43b 5700 2ebc ceb7 fcbb c7ca 37bc
000000a0: a5d7 463c 091a 523c aa14 943c 773b 7c3b
000000b0: 98b2 b1bb 7d68 f6ba 0e99 3e3b 500e d6bb
000000c0: 2379 f63b 8cc8 503b 9820 febb 448d a5bc
000000d0: 325b 6cbc 983a 59bb 6050 47bc d455 66bc
000000e0: 2b9d 7cbc b16f 27bb 63e9 d4bb 85ef 30bc
000000f0: 2cca 7538 535e a83b 250e e2bb ed70 4fbb
00000100: dddc 4dba 759d 2ebb cace 413b 4d8b 893c
00000110: e313 12bc c36e 51bb ebf4 c43b 029e 483c
00000120: a751 a0bc 0c31 55bc 3586 05bb 0fca 873c
00000130: c63b 8db8 9e62 213c b19a 15bb 0048 a7bb
00000140: f0dd 01b9 739b 87bc 59f2 f23b 1229 ecbb
00000150: 82a8 afbb 9f1b 9bbc c4da 89bb c1eb 19bc
00000160: d0ef 033c f19f 8cba 5088 423c 1c33 9dbc
00000170: 1cd0 7ebc 2744 4a3b da19 a0bc fc9e 26bb
00000180: 5eab 033c c03a c3bb f077 ed3a 234c 87bc
00000190: b152 75bb 23bc b43c 310f 39bc 8d28 50ba
000001a0: e711 bfbb 23af 33bc 2674 fcbb 5643 bd3b
000001b0: 4785 793b 9d63 963b f494 dbbb 46a6 ecba
000001c0: 195f b63b fc5f 5b3b cb24 c2ba 57f5 753b
000001d0: b407 43bc 1750 9e3b 0945 893c 4561 513c
000001e0: 2df2 823c d0e3 a13a 8011 beba 2889 e4bb
000001f0: c052 4a3c e5e1 1ebc b80e dbbb 8363 06bc
00000200: 26df 3f3b 49d9 1bbc 6731 e6bb beec 4ebb
00000210: 0f32 e6bb 0842 98ba a8be 0fbc c65c 2b3c
00000220: 9541 b3ba 7ed0 7dbb 4c80 07bb b290 88bc
00000230: 8575 bd3a ddbb 333c d678 2ebc c7ac b5bb
00000240: 19ac fdbb aca3 6f3b bdfd 9ebb 9991 243c
00000250: c281 1939 26e6 5b3c 1b8b 66bc fe2f 8b3c
00000260: 9dd6 0ebc 2364 b03b 22f3 bfbc 1f20 913c
00000270: fe22 483b 7629 85ba 26be 90bb 4d47 8bbb
00000280: e74c aebc db8a 413c bda4 1fbc ecb0 133c
00000290: 9e7c 26bc 5d32 c13b 5eaa afbb d16c 21bc
000002a0: 8a9e a5bc 8e98 3d3c d7db 293a 3481 aabc
000002b0: 28bd 063b 7422 1abc c5b7 d1bb 339b f0ba
000002c0: d628 17bc 51f8 383c 47b5 74bc f6e5 2fbc
000002d0: 586e 903c 03de 97bc 3a34 36bc c7f6 78bc
000002e0: 831b fa3b 148a c9bc c294 ab3b 6fbb 27ba
000002f0: 78fa 1cbb c4ad 843b a412 69bc 4246 b5bb
00000300: 3da1 acbb 5425 4fbc 4820 5cb9 17ee 7dbb
00000310: 5ab8 04bb b699 73bc 87ac f63a 9007 ecbb
00000320: f2eb 333c 83b5 173b 116c 4bbb f370 4dbb
00000330: eb98 f73b bb26 993b 695c 33bc 8ceb d1bc
00000340: 40ac 50bc 5621 433c f351 b8b7 d6dd d8bb
00000350: 9c84 da3b 4c11 d63a 0bf5 983c b8a5 3b3b
00000360: 391d 243c 19c7 a53c 6518 1bbc c31c 8c3c
00000370: 65af c5bb 5a1b b3bb b67f cbbb 628b 4a3b
00000380: abc7 5fbc 0cbc 963c 3732 a63c afc6 7a3c
00000390: c403 cd3c 0d5f fd3b 8c63 8c3c 711a 4b3c
000003a0: f272 1d3c b4b0 183c dfd7 9cbc 89c9 993c
000003b0: fb7a cb3b 247a a13c 063c 8b3c 7ae2 733c
000003c0: d6f9 d83b 9724 fd3b 010d 873b 6c29 023d
000003d0: 1918 633c eaf5 883c 81da aa3c ea3e c13b
000003e0: 9d28 ef3c bc2e e2b8 d248 813b 82cc f93b
000003f0: 83a6 10bc 4f8e aeb8 d1ce 83bb 86b1 123a

branch2.3.bias f4 [40]
-0.0026642655 -0.0060056145 -0.0040810145 -0.005079206 -0.0024805535 -0.0027791495 -0.0060189455 -0.0036965364
-0.0060046334 -0.004032519 -0.006005503 -0.0060383393 -0.0060050366 -0.0060057924 -0.0060055056 -0.007026936
-0.003747683 -0.004637335 -0.007076369 -0.0025595308 -0.0073266155 -0.0033881092 -0.0061019035 -0.00158535
-0.0036779393 -0.0030172572 -0.0036617042 0.0011874023 -0.004393465 -0.0040968875 -0.0036792718 -0.006173469
-0.0060228095 0.009170221 -0.006005507 -0.005371679 -0.0061048693 -0.0089021 -0.0060231006 -0.0046888394
00000000: f59a 2ebb bfca c4bb 08ba 85bb 786f a6bb
00000010: c890 22bb 6422 36bb 933a c5bb 9741 72bb
00000020: 84c2 c4bb 3923 84bb cfc9 c4bb 43dd c5bb
00000030: e6c5 c4bb 3dcc c4bb d5c9 c4bb 3642 e6bb
00000040: b09b 75bb c9f4 97bb e3e0 e7bb cdbd 27bb
00000050: 1b14 f0bb 0a0b 5ebb 7af2 c7bb 85cb cfba
00000060: 9509 71bb 2dbd 45bb 34f9 6fbb 9ca2 9b3a
00000070: 0ef7 8fbb 2f3f 86bb f01f 71bb d04a cabb
00000080: fd5a c5bb b23e 163c d8c9 c4bb e904 b0bb
00000090: 5b0b c8bb 1dda 11bc 6e5d c5bb d6a4 99bb

branch2.6.weight f4 [20, 40, 5, 5]
-0.010996462 0.0026970184 0.0122237345 0.009496452 -0.0006158356 -0.005926926 0.006291478 0.012885225
-0.008912042 0.0015703096 -0.015331401 -0.012269431 0.015416089 -0.0028338928 0.01605729 0.015564655
0.008143255 0.003927867 0.009027893 0.0030116376 0.010812893 0.023349091 0.00020499865 -0.0005899474
0.010359514 -0.008475835 -0.0057256427 -0.008731152 -0.0013572483 -0.0017947054 -0.005271541 -0.005435974
0.0028133567 -0.0053166877 -0.009706223 -0.0064504887 -9.15645e-05 -0.022511624 -0.022001797 -0.006069469
-0.01424969 -0.008221178 0.007373418 0.0011794819 -0.022589933 -0.013594481 -0.007473235 0.005786399
-0.006000516 -0.016858527 -0.00805611 0.0024474058 -0.012513785 -0.01610132 -0.007282503 0.010556684
-0.012132256 -0.0024217155 -0.020412356 -0.018689463 -0.009058658 -0.0005565864 -0.00616751 -0.014579066
-0.0099349795 -0.014905719 -0.013999944 -0.0040009613 -0.015869161 0.014560869 -0.022123722 0.012327306
-0.0107494425 0.0026998527 -0.020175755 0.008038692 -0.010998732 -0.0072197365 0.009372815 -0.0027316525
-0.024925489 -0.009147149 0.012661274 3.507049e-05 0.004253259 -0.0045192526 0.009239013 0.0061720167
-0.0051622083 0.001431814 0.009005516 -0.011215257 -0.0024874255 -0.013170176 0.0025312528 0.010759909
-0.010350116 -0.006754177 -0.015347181 -0.0016458381 -0.016254237 -0.0038991065 -0.009660772 -0.017096004
-0.0025975376 -0.015042903 0.0083039375 -0.0059732944 -0.00816697 0.009179986 0.0017720099 0.023971858
-0.0009530356 -0.0014748788 0.0013161215 -0.028389873 -0.022933098 0.004856084 -0.0061486135 -0.011562254
0.0027863423 0.007790025 -0.0012225125 -0.012285782 -0.029790405 -0.002752952 0.008247861 -0.0029595976
-0.010492097 0.0011693029 -0.005950708 -0.013049724 -0.023362875 0.011861428 -0.008152561 -0.024522567
-0.022377115 0.0022480164 -0.010526857 -0.029891439 -0.019174246 -0.007103819 -0.0026058 -0.0016582147
-0.021712203 -0.0027673666 -0.005330381 0.0021664246 -0.013676804 -0.0059067304 -0.012685326 0.0053580212
-0.008406076 0.016485855 -0.0014823376 -0.00086222397 -0.007891075 -0.009012592 -0.014634705 -0.017900964
-0.0018985078 4.1398747e-05 0.0044430085 -0.019265616 -0.011436798 0.0024286858 0.0016330231 0.009257043
0.018287545 -0.034342345 -0.005943212 0.0025721183 -0.0064762197 -0.021107916 -0.012392753 0.012758227
-0.010362316 -0.027328111 0.00264546 -0.006565186 -0.012906479 -0.017727602 -0.00017654072 0.007756717
-0.011584297 -0.0027642462 0.003135516 -0.008891617 -0.0123086935 -0.010786685 -0.0014440514 -0.0030683503
-0.007948621 -0.0050944057 -0.007773549 -0.014412909 -0.0055296873 -0.005629941 -0.0130073475 -0.01232565
-0.012935239 -0.007858368 -0.0024227956 -0.02436251 -0.026244488 -0.0075675133 -0.0034985815 -0.010807479
0.010601056 -0.023101257 -0.0063193263 -0.018600205 -0.007187077 -0.009511464 -0.01099204 -0.009125255
-0.008155413 -0.016701743 0.001194996 -0.008027629 -0.01332592 0.0062572747 0.006340206 -0.008746667
-0.020225657 0.0020248743 -0.010054434 -0.0033694683 0.012256079 -0.019458398 0.001672948 0.0065164464
-0.011055528 0.0013655865 -0.0030115282 0.0049079885 -0.0020729546 0.001016146 -0.011420066 -0.006813792
0.001793384 0.0007799979 -0.00073073996 0.0069079483 0.01652063 -0.00088340614 0.009447264 0.005040742
0.025421988 0.006989899 -0.005798359 0.0029630223 0.005166543 0.0028733562 -0.019365316 -0.008137613
00000000: 812a 34bc 76c0 303b 0f46 483c 0297 1b3c
00000010: 0770 21ba a936 c2bb be28 ce3b 8d1c 533c
00000020: d003 12bc d9d2 cd3a 8e30 7bbc b905 49bc
00000030: c493 7c3c d5b8 39bb 948a 833c e502 7f3c
00000040: 496b 053c 56b5 803b bae9 133c e55e 453b
00000050: 8f28 313c 9846 bf3c e8f4 5639 b3a6 1aba
00000060: f3ba 293c 3bde 0abc 2c9e bbbb 1b0d 0fbc
00000070: b2e5 b1ba 523c ebba e4bc acbb 4120 b2bb
00000080: 4b60 383b 9c37 aebb da06 1fbc 9f5e d3bb
00000090: 5106 c0b8 4c6a b8bc 1d3d b4bc 65e2 c6bb
000000a0: 8877 69bc 1fb2 06bc b79c f13b d898 9a3a
000000b0: 860e b9bc 63bb 5ebc 0ae2 f4bb d59b bd3b
000000c0: fa9f c4bb e51a 8abc c6fd 03bc a864 203b
000000d0: 9e06 4dbc eae6 83bc 10a2 eebb f1f5 2c3c
000000e0: 5fc6 46bc a5b5 1ebb d037 a7bc a51a 99bc
000000f0: c46a 14bc e2e7 11ba d318 cabb 09dd 6ebc
00000100: 53c6 22bc 1e37 74bc 0560 65bc 7f1a 83bb
00000110: 0b00 82bc b690 6e3c cf3c b5bc 78f8 493c
00000120: 6e1e 30bc 03f0 303b a047 a5bc b8b4 033c
00000130: 0734 34bc 8a93 ecbb 6f90 193c 8605 33bb
00000140: 8a30 ccbc ecdd 15bc 3b71 4f3c a718 1338
00000150: ec5e 8b3b 3d16 94bb 3b5f 173c a13e ca3b
00000160: be27 a9bb b5ab bb3a df8b 133c 33c0 37bc
00000170: 1304 23bb b9c7 57bc 60e3 253b 544a 303c
00000180: 8893 29bc 2552 ddbb be72 7bbc 2ab9 d7ba
00000190: 9b27 85bc 2788 7fbb 3748 1ebc eb0c 8cbc
000001a0: 733b 2abb 8276 76bc 3d0d 083c a0bb c3bb
000001b0: c1ce 05bc a767 163c c942 e83a a160 c43c
000001c0: 23d5 79ba b850 c1ba b681 ac3a e191 e8bc
000001d0: 31de bbbc c91f 9f3b 4f7a c9bb 9c6f 3dbc
000001e0: 119b 363b 7743 ff3b b63c a0ba 4e4a 49bc
000001f0: 020b f4bc df6a 34bb 0922 073c cff5 41bb
00000200: 0be7 2bbc 4b43 993a 28fe c2bb 82ce 55bc
00000210: 8063 bfbc 6f56 423c 5292 05bc 8de3 c8bc
00000220: 3650 b7bc 7553 133b d778 2cbc e4de f4bc
00000230: 4f13 9dbc 27c7 e8bb 12c6 2abb 7458 d9ba
00000240: cadd b1bc b55c 35bb 7aaa aebb 93fa 0d3b
00000250: ac14 60bc 3f8d c1bb 1dd6 4fbc 5792 af3b
00000260: a3b9 09bc 580d 873c ff4a c2ba df06 62ba
00000270: 9149 01bc 8da9 13bc 67c6 6fbc 0ba5 92bc
00000280: 5ad7 f8ba 91a3 2d38 a896 913b edd2 9dbc
00000290: 6861 3bbc 962a 1f3b 2a0b d63a daaa 173c
000002a0: c3cf 953c 8faa 0cbd 47bf c2bb fc90 283b
000002b0: 7836 d4bb 82ea acbc f90a 4bbc e207 513c
000002c0: b4c6 29bc 34df dfbc 745f 2d3b c620 d7bb
000002d0: b275 53bc 7a39 91bc ca1d 39b9 0f2c fe3b
000002e0: 10cc 3dbc 5b28 35bb 3b7d 4d3b 25ae 11bc
000002f0: 67aa 49bc a3ba 30bc 5346 bdba 6016 49bb
00000300: ef3a 02bc f9ee a6bb 41b9 febb 1f24 6cbc
00000310: 6132 b5bb 5e7b b8bb c51c 55bc 86f1 49bc
00000320: 53ee 53bc 62c0 00bc c4c7 1ebb e393 c7bc
00000330: aefe d6bc e7f8 f7bb 7548 65bb da11 31bc
00000340: 0db0 2d3c d93e bdbc 5a12 cfbb 755f 98bc
00000350: 9281 ebbb f9d5 1bbc f517 34bc 1882 15bc
00000360: 489e 05bc 18d2 88bc 69a1 9c3a 5186 03bc
00000370: f654 5abc d309 cd3b 81c1 cf3b 2e4e 0fbc
00000380: 47b0 a5bc c1b3 043b 5abb 24bc 4cd2 5cbb
00000390: b9cd 483c 3867 9fbc d246 db3a ea87 d53b
000003a0: 3f22 35bc 7bfd b23a 0f5d 45bb 31d3 a03b
000003b0: 68da 07bb 3430 853a 3a1b 3bbc 3b46 dfbb
000003c0: fb0f eb3a c678 4c3a 218f 3fba 125c e23b
000003d0: 4656 873c 6294 67ba b2c8 1a3c cf2c a53b
000003e0: c641 d03c 860b e53b 2900 bebb 442f 423b
000003f0: 1b4c a93b eb4e 3c3b 03a4 9ebc 9f53 05bc

branch2.6.bias f4 [20]
-0.0060045156 -0.0010707822 -0.0060055065 -0.004698823 -0.0080006635 -0.003583904 0.0033955292 -0.0060054907
-0.0060055065 -0.0039894613 -0.0024798415 -0.0060055135 -0.004524736 -0.0062250765 -0.0043536047 -0.0060054916
-0.006022082 -0.0060054837 -0.0039898297 0.00067352597
00000000: 87c1 c4bb 7d59 8cba d7c9 c4bb 96f8 99bb
00000010: 3715 03bc eedf 6abb 8787 5e3b b5c9 c4bb
00000020: d7c9 c4bb 07ba 82bb d684 22bb e6c9 c4bb
00000030: 3d44 94bb bafb cbbb afa8 8ebb b7c9 c4bb
00000040: e354 c5bb a6c9 c4bb 1ebd 82bb 908f 303a
